…
WARNING:tensorflow:From /tensorflow-1.15.2/python3.6/tensorflow_core/python/ops/nn_impl.py:183: where (from tensorflow.python.ops.array_ops) is deprecated and will be removed in a future version.
Instructions for updating:
Use tf.where in 2.0, which has the same broadcast rule as np.where
WARNING:tensorflow:From /usr/local/lib/python3.6/dist-packages/keras/backend/tensorflow_backend.py:2239: The name tf.image.resize_nearest_neighbor is deprecated. Please use tf.compat.v1.image.resize_nearest_neighbor instead.

Model: "sequential_2"
_________________________________________________________________
Layer (type)                 Output Shape              Param #   
=================================================================
dense_2 (Dense)              (None, 4096)              528384    
_________________________________________________________________
reshape_1 (Reshape)          (None, 4, 4, 256)         0         
_________________________________________________________________
up_sampling2d_1 (UpSampling2 (None, 8, 8, 256)         0         
_________________________________________________________________
conv2d_6 (Conv2D)            (None, 8, 8, 256)         590080    
_________________________________________________________________
batch_normalization_5 (Batch (None, 8, 8, 256)         1024      
_________________________________________________________________
activation_1 (Activation)    (None, 8, 8, 256)         0         
_________________________________________________________________
up_sampling2d_2 (UpSampling2 (None, 16, 16, 256)       0         
_________________________________________________________________
conv2d_7 (Conv2D)            (None, 16, 16, 256)       590080    
_________________________________________________________________
batch_normalization_6 (Batch (None, 16, 16, 256)       1024      
_________________________________________________________________
activation_2 (Activation)    (None, 16, 16, 256)       0         
_________________________________________________________________
up_sampling2d_3 (UpSampling2 (None, 32, 32, 256)       0         
_________________________________________________________________
conv2d_8 (Conv2D)            (None, 32, 32, 256)       590080    
_________________________________________________________________
batch_normalization_7 (Batch (None, 32, 32, 256)       1024      
_________________________________________________________________
activation_3 (Activation)    (None, 32, 32, 256)       0         
_________________________________________________________________
up_sampling2d_4 (UpSampling2 (None, 64, 64, 256)       0         
_________________________________________________________________
conv2d_9 (Conv2D)            (None, 64, 64, 256)       590080    
_________________________________________________________________
batch_normalization_8 (Batch (None, 64, 64, 256)       1024      
_________________________________________________________________
activation_4 (Activation)    (None, 64, 64, 256)       0         
_________________________________________________________________
up_sampling2d_5 (UpSampling2 (None, 128, 128, 256)     0         
_________________________________________________________________
conv2d_10 (Conv2D)           (None, 128, 128, 256)     590080    
_________________________________________________________________
batch_normalization_9 (Batch (None, 128, 128, 256)     1024      
_________________________________________________________________
activation_5 (Activation)    (None, 128, 128, 256)     0         
=================================================================
Total params: 3,483,904
Trainable params: 3,481,344
Non-trainable params: 2,560
_________________________________________________________________

/usr/local/lib/python3.6/dist-packages/keras/engine/training.py:493: UserWarning: Discrepancy between trainable weights and collected trainable weights, did you set `model.trainable` without calling `model.compile` after ?
…
